…
{'block_dataset': {'dataset_names': ['block_dataset'], 'jsonl_path_list': ['/scratch/by2593/project/SMM/SMM_data/semantic_block_train_part1.jsonl'], 'num_used_data': 'None', 'image_prefix_dir': '/scratch/by2593/project/SMM/semantic_blocks_part1', 'image_transform_args': {'image_stride': 16, 'max_image_size': 512, 'min_image_size': 512}, 'vit_image_transform_args': {'image_stride': 14, 'max_image_size': 512, 'min_image_size': 512}, 'weight': 1.0, 'is_mandatory': True}}
rank-6 worker-0 dataset-block_dataset: resuming data at row#0
rank-4 worker-0 dataset-block_dataset: resuming data at row#0
FullyShardedDataParallel(
  (_fsdp_wrapped_module): Bagel(
    (language_model): Qwen2ForCausalLM(
      (model): Qwen2Model(
        (embed_tokens): Embedding(152064, 3584)
        (layers): ModuleList(
          (0-27): 28 x FullyShardedDataParallel(
            (_fsdp_wrapped_module): CheckpointWrapper(
              (_checkpoint_wrapped_module): Qwen2MoTDecoderLayer(
                (self_attn): PackedAttentionMoT(
                  (q_proj): Linear(in_features=3584, out_features=3584, bias=True)
                  (k_proj): Linear(in_features=3584, out_features=512, bias=True)
                  (v_proj): Linear(in_features=3584, out_features=512, bias=True)
                  (o_proj): Linear(in_features=3584, out_features=3584, bias=False)
                  (q_norm): Qwen2RMSNorm((128,), eps=1e-06)
                  (k_norm): Qwen2RMSNorm((128,), eps=1e-06)
                  (q_norm_moe_gen): Qwen2RMSNorm((128,), eps=1e-06)
                  (k_norm_moe_gen): Qwen2RMSNorm((128,), eps=1e-06)
                  (q_proj_moe_gen): Linear(in_features=3584, out_features=3584, bias=True)
                  (k_proj_moe_gen): Linear(in_features=3584, out_features=512, bias=True)
                  (v_proj_moe_gen): Linear(in_features=3584, out_features=512, bias=True)
                  (o_proj_moe_gen): Linear(in_features=3584, out_features=3584, bias=False)
                )
                (mlp): Qwen2MLP(
                  (gate_proj): Linear(in_features=3584, out_features=18944, bias=False)
                  (up_proj): Linear(in_features=3584, out_features=18944, bias=False)
                  (down_proj): Linear(in_features=18944, out_features=3584, bias=False)
                  (act_fn): SiLU()
                )
                (mlp_moe_gen): Qwen2MLP(
                  (gate_proj): Linear(in_features=3584, out_features=18944, bias=False)
                  (up_proj): Linear(in_features=3584, out_features=18944, bias=False)
                  (down_proj): Linear(in_features=18944, out_features=3584, bias=False)
                  (act_fn): SiLU()
                )
                (input_layernorm): Qwen2RMSNorm((3584,), eps=1e-06)
                (input_layernorm_moe_gen): Qwen2RMSNorm((3584,), eps=1e-06)
                (post_attention_layernorm): Qwen2RMSNorm((3584,), eps=1e-06)
                (post_attention_layernorm_moe_gen): Qwen2RMSNorm((3584,), eps=1e-06)
              )
            )
          )
        )
        (norm): Qwen2RMSNorm((3584,), eps=1e-06)
        (norm_moe_gen): Qwen2RMSNorm((3584,), eps=1e-06)
        (rotary_emb): Qwen2RotaryEmbedding()
      )
      (lm_head): Linear(in_features=3584, out_features=152064, bias=False)
    )
    (time_embedder): FullyShardedDataParallel(
      (_fsdp_wrapped_module): TimestepEmbedder(
        (mlp): Sequential(
          (0): Linear(in_features=256, out_features=3584, bias=True)
          (1): SiLU()
          (2): Linear(in_features=3584, out_features=3584, bias=True)
        )
      )
    )
    (vae2llm): Linear(in_features=64, out_features=3584, bias=True)
    (llm2vae): Linear(in_features=3584, out_features=64, bias=True)
    (latent_pos_embed): FullyShardedDataParallel(
      (_fsdp_wrapped_module): PositionEmbedding()
    )
    (vit_model): SiglipVisionModel(
      (vision_model): FullyShardedDataParallel(
        (_fsdp_wrapped_module): SiglipVisionTransformer(
          (embeddings): SiglipVisionEmbeddings(
            (position_embedding): Embedding(4900, 1152)
            (patch_embedding): Linear(in_features=588, out_features=1152, bias=True)
          )
          (encoder): SiglipEncoder(
            (layers): ModuleList(
              (0-25): 26 x FullyShardedDataParallel(
                (_fsdp_wrapped_module): CheckpointWrapper(
                  (_checkpoint_wrapped_module): SiglipEncoderLayer(
                    (self_attn): SiglipFlashAttention2(
                      (k_proj): Linear(in_features=1152, out_features=1152, bias=True)
                      (v_proj): Linear(in_features=1152, out_features=1152, bias=True)
                      (q_proj): Linear(in_features=1152, out_features=1152, bias=True)
                      (out_proj): Linear(in_features=1152, out_features=1152, bias=True)
                    )
                    (layer_norm1): LayerNorm((1152,), eps=1e-06, elementwise_affine=True)
                    (mlp): SiglipMLP(
                      (activation_fn): PytorchGELUTanh()
                      (fc1): Linear(in_features=1152, out_features=4304, bias=True)
                      (fc2): Linear(in_features=4304, out_features=1152, bias=True)
                    )
                    (layer_norm2): LayerNorm((1152,), eps=1e-06, elementwise_affine=True)
                  )
                )
              )
            )
          )
          (post_layernorm): LayerNorm((1152,), eps=1e-06, elementwise_affine=True)
        )
      )
    )
    (connector): FullyShardedDataParallel(
      (_fsdp_wrapped_module): CheckpointWrapper(
        (_checkpoint_wrapped_module): MLPconnector(
          (activation_fn): PytorchGELUTanh()
          (fc1): Linear(in_features=1152, out_features=3584, bias=True)
          (fc2): Linear(in_features=3584, out_features=3584, bias=True)
        )
      )
    )
    (vit_pos_embed): FullyShardedDataParallel(
      (_fsdp_wrapped_module): PositionEmbedding()
    )
  )
)
_flat_param True
language_model.model.layers.0._fsdp_wrapped_module._checkpoint_wrapped_module._flat_param True
language_model.model.layers.1._fsdp_wrapped_module._checkpoint_wrapped_module._flat_param True
language_model.model.layers.2._fsdp_wrapped_module._checkpoint_wrapped_module._flat_param True
…
